checkdown/model/sign_classifier.tflite (tflite, 353484 bytes, 6 tensors)

sequential_3/conv2d_3/BiasAdd/ReadVariableOp f2 [16]
000000 9a 2c b0 32 b9 2e 79 32 bc 2c d9 b4 93 b1 ba 2e
       0.0719 0.209 0.10504 0.2023 0.074 -0.303 -0.1742 0.1051
000010 e2 b0 95 a8 80 b3 0e 24 4f b3 4c 26 80 32 3e 23
       -0.1526 -0.0358 -0.2344 0.01584 -0.2284 0.0246 0.2031 0.014145

sequential_3/conv2d_3/Conv2D f2 [16, 3, 3, 1]
000000 ae b1 2a 34 57 35 a5 b4 6c 2c c9 32 d2 b3 3f b5
       -0.1775 0.2603 0.3337 -0.2903 0.0691 0.212 -0.2444 -0.328
000010 41 2c 7e 35 e0 b2 2f a8 0a b4 ad 2a 96 28 23 b4
       0.06647 0.3433 -0.2148 -0.03268 -0.2524 0.05215 0.03583 -0.2585
000020 0e b4 f8 34 0f 32 9f ad dc b6 a6 36 24 af 19 b5
       -0.2534 0.3105 0.1893 -0.0878 -0.4287 0.4155 -0.1116 -0.3186
000030 a8 35 c1 32 6a b5 5e 34 1e 33 88 ad eb 21 7f b2
       0.3535 0.211 -0.3384 0.273 0.2224 -0.0864 0.01156 -0.203
000040 f2 b3 5d b1 64 ac 43 10 73 b2 3b 24 37 34 1b b4
       -0.2483 -0.1676 -0.0686 0.00052 -0.2015 0.01653 0.2634 -0.2566
000050 01 b4 77 36 78 b0 59 b4 44 35 9f 2f 06 34 e1 34
       -0.2502 0.404 -0.1396 -0.2717 0.329 0.1191 0.2515 0.305
000060 e1 b2 72 30 df 35 58 b4 8b 33 c9 31 2b 35 d1 33
       -0.215 0.1389 0.367 -0.2715 0.2357 0.1808 0.323 0.2443
000070 7b b3 8c 34 df 34 a6 b2 dc ab e7 32 51 b2 cc 30
       -0.2338 0.2842 0.3044 -0.2078 -0.0614 0.2157 -0.1974 0.1499
000080 28 b6 5e b3 b4 b4 7d b2 70 35 ab a9 2d 36 ac 30
       -0.3848 -0.2302 -0.294 -0.2028 0.3398 -0.04428 0.386 0.146
000090 63 2e b4 30 09 30 d5 29 c7 28 37 2e c7 30 21 2f
       0.0998 0.147 0.1261 0.04556 0.03732 0.0971 0.1493 0.1114
0000a0 c9 30 c6 b1 98 b5 22 31 87 a5 78 b5 7e 35 68 26
       0.1495 -0.1804 -0.3496 0.1604 -0.02159 -0.3418 0.3433 0.02502
0000b0 41 2c 32 38 12 94 5a 2e cd 35 1b b5 3c ab b5 36
       0.06647 0.5244 -0.000994 0.09924 0.3625 -0.319 -0.05652 0.4192
0000c0 24 28 17 27 20 34 97 2f 2a b6 37 b1 87 b1 5c b0
       0.03235 0.0277 0.2578 0.1186 -0.3853 -0.163 -0.1727 -0.1362
0000d0 30 34 ca b4 de 35 34 36 06 34 e9 35 82 34 6c af
       0.2617 -0.2993 0.3667 0.3877 0.2515 0.3694 0.2817 -0.11597
0000e0 1c 34 3e 35 f3 aa c0 b3 8f 2a 20 b0 14 18 4d 32
       0.2568 0.3276 -0.0543 -0.2422 0.05124 -0.1289 0.001991 0.1969
0000f0 c8 b0 4f ac b3 34 e8 b5 73 b2 4a 36 2b 35 e4 b4
       -0.1494 -0.0673 0.2937 -0.3691 -0.2015 0.393 0.323 -0.3057
000100 3e 34 ff ac b3 b6 0d b1 30 34 d7 b4 0a 32 e7 33
       0.2651 -0.07806 -0.4187 -0.1578 0.2617 -0.3025 0.1887 0.247
000110 59 35 c8 2f 38 b5 24 34 96 30 7e b7 20 b5 19 1e
       0.3342 0.1216 -0.3262 0.2588 0.1433 -0.4683 -0.3203 0.005955

sequential_3/dense_7/BiasAdd/ReadVariableOp f2 [25]
000000 38 b1 08 2d fe a4 69 2c c2 ae 2a ac 6a 30 f0 2d
       -0.1631 0.0786 -0.0195 0.0689 -0.1056 -0.06506 0.138 0.0928
000010 4b 96 0f ae 24 ad 6e ac 06 15 24 27 cc 9f 53 26
       -0.001536 -0.09467 -0.0803 -0.0692 0.001226 0.0279 -0.007614 0.0247
000020 a8 a9 16 2d 69 28 33 2b 07 a2 a3 a3 fd 28 e3 2a
       -0.0442 0.07947 0.03445 0.05624 -0.01177 -0.014915 0.03897 0.0538
000030 b0 14
       0.001144

sequential_3/dense_6/BiasAdd/ReadVariableOp f2 [64]
000000 37 27 b3 24 b4 1f b4 9e 6e 9c 41 a5 f4 23 c7 9f
       0.02818 0.01836 0.007523 -0.006546 -0.004326 -0.02052 0.01553 -0.007595
000010 70 9e 9b 9c 23 9e d0 a7 1b 26 b5 18 e7 a5 93 9e
       -0.006287 -0.004498 -0.005993 -0.03052 0.02385 0.002298 -0.02306 -0.00642
000020 38 9c a6 a4 39 25 4d 21 88 9d fd a0 3d 9d 05 9f
       -0.00412 -0.01816 0.0204 0.01035 -0.0054 -0.00974 -0.005116 -0.006855
000030 22 9e ed 98 bb 9e 26 9e 27 9f cc 25 f5 05 26 9e
       -0.00599 -0.002405 -0.006573 -0.006004 -0.006985 0.02264 9.09e-05 -0.006004
000040 22 1c bb 9d bc 9d 0a 9e f8 a3 0f 9d 51 9f 01 a0
       0.004036 -0.005596 -0.0056 -0.005898 -0.015564 -0.00494 -0.007145 -0.00782
000050 5e 1f 92 9d d9 1f 09 a0 21 9f ee a5 25 9e 24 9e
       0.007195 -0.00544 0.007664 -0.00788 -0.00696 -0.02316 -0.006 -0.005997
000060 cd 26 53 9c 0a 9f 25 9e 4f 26 d8 9c 5c 9d 26 9e
       0.02657 -0.004223 -0.006874 -0.006 0.02464 -0.00473 -0.005234 -0.006004
000070 15 9e a8 9d 26 9e 1f 9e d0 9d 11 21 4d a0 26 9e
       -0.00594 -0.005524 -0.006004 -0.005978 -0.005676 0.009895 -0.0084 -0.006004

sequential_3/dense_6/MatMul f2 [64, 2704]
000000 07 1a b3 2d 0d 2a 25 9d 95 24 f0 29 03 2c 8e 31
       0.002943 0.08905 0.04727 -0.005024 0.0179 0.0464 0.0627 0.1736
000010 a6 2a fc 2d 45 29 dc 2b 05 a0 0f 29 22 30 68 1e
       0.05194 0.0935 0.04117 0.0614 -0.00785 0.03952 0.1292 0.006256
000020 6a 2e 17 a9 57 2a 65 ab 04 29 6f 16 4f 9f 85 08
       0.1002 -0.03976 0.04953 -0.05777 0.03918 0.001571 -0.007137 0.0001379
000030 99 27 55 2b 87 23 74 98 28 a1 85 2a b0 1b 72 2b
       0.02968 0.05728 0.0147 -0.002174 -0.01007 0.05093 0.003754 0.05817
000040 86 27 9e 27 46 2c c9 2a 19 9c 2e 2b fd 27 06 aa
       0.02939 0.02975 0.0668 0.053 -0.004 0.0561 0.0312 -0.04706
000050 61 2c 05 22 9c 25 eb a9 c0 29 3a a8 5f 28 0e 28
       0.0684 0.01176 0.02191 -0.04623 0.04492 -0.03302 0.03415 0.03168
000060 cb 2e 4b 28 e0 30 24 2e 00 30 04 2b 8f 2e 0e 29
       0.10614 0.03354 0.1523 0.09595 0.125 0.0548 0.1025 0.0395
000070 1f 25 18 29 d3 a4 92 2e 3a 24 2f 30 be 9e ca 28
       0.02 0.0398 -0.01884 0.10266 0.01651 0.1307 -0.006584 0.0374
000080 e3 24 b6 2d 60 36 14 32 4b 24 53 29 f8 2c 8a a7
       0.01909 0.08923 0.3984 0.19 0.01677 0.0416 0.07764 -0.02945
000090 e9 25 08 a7 7d 27 8f a8 ee 28 5c 2b 57 30 2a a8
       0.02309 -0.02747 0.02925 -0.0356 0.0385 0.0575 0.1356 -0.03253
0000a0 fe 31 97 32 a0 29 ae 33 4e 2d ae 25 51 a1 b9 2c
       0.1873 0.2059 0.04395 0.24 0.0829 0.02219 -0.01038 0.0738
0000b0 49 81 60 a8 a7 a5 fd 2d 16 28 49 28 63 31 ad 31
       -1.96e-05 -0.03418 -0.02208 0.09357 0.03192 0.03348 0.1683 0.1774
0000c0 29 aa 11 30 b7 aa b6 2a fb 21 d9 21 fb ab 61 29
       -0.04813 0.1271 -0.05246 0.05243 0.01168 0.01142 -0.06235 0.04202
0000d0 45 24 a9 a8 0b 9c 15 26 13 a8 94 28 24 27 e2 ad
       0.01668 -0.0364 -0.00395 0.02376 -0.03183 0.03577 0.0279 -0.0919
0000e0 4b ae bd ae 2f 2c 4b a8 9f b1 6b a1 21 ae d5 ac
       -0.0983 -0.1053 0.06537 -0.03354 -0.1757 -0.01058 -0.09576 -0.0755
0000f0 ea a9 39 aa 17 a6 3d b0 cd a0 88 b0 9d a9 d2 b2
       -0.0462 -0.0486 -0.02379 -0.1324 -0.00938 -0.1416 -0.04385 -0.2131
000100 9d a9 c5 29 83 ad a5 a5 17 24 7d 1d 4f ae 00 ac
       -0.04385 0.04507 -0.0861 -0.02205 0.01598 0.00536 -0.0986 -0.0625
000110 35 22 35 1a 74 24 fc ad b9 a9 33 92 01 a0 c3 b0
       0.01212 0.00303 0.0174 -0.0935 -0.0447 -0.0007567 -0.00782 -0.1488
000120 1c b4 7c ae 52 25 ad a9 fa b2 16 a4 3e a7 22 ab
       -0.2568 -0.1013 0.02078 -0.04434 -0.218 -0.01596 -0.02829 -0.05573
000130 13 24 3d 9c 29 ab b2 af c7 99 bb b2 16 ad 67 b3
       0.01591 -0.00414 -0.05594 -0.12024 -0.002821 -0.2103 -0.07947 -0.2313
000140 08 b3 f9 a8 1f ac 59 2e 1c ad a7 a1 78 aa 5a 30
       -0.2197 -0.03885 -0.0644 0.0992 -0.07983 -0.01104 -0.05054 0.136
000150 f3 a6 ee 25 65 8d 7e a7 70 21 60 ab 31 25 5c b2
       -0.02715 0.02316 -0.0003293 -0.02927 0.01062 -0.05762 0.02028 -0.1987
000160 4c 28 84 2c 7b b0 01 22 22 30 2b a9 24 ab 37 31
       0.03357 0.07056 -0.14 0.01173 0.1292 -0.04037 -0.0558 0.163
000170 36 a5 a4 21 55 99 79 9d 82 a8 d2 26 7a 2e 8b b1
       -0.02036 0.01102 -0.002604 -0.005344 -0.03522 0.02664 0.1012 -0.1732
000180 29 26 5d a9 97 2d 86 2a f1 a8 9c 29 a9 28 de 29
       0.02406 -0.0419 0.08734 0.05096 -0.0386 0.04382 0.0364 0.04584
000190 82 2a 02 a8 40 a6 a4 a8 18 24 56 1f ad a1 e8 a5
       0.05084 -0.0313 -0.02441 -0.03625 0.01599 0.007164 -0.011086 -0.02307
0001a0 ab 2c fc 2b 47 2d 91 2a 87 29 e4 25 b5 29 0d 30
       0.07294 0.06238 0.08246 0.0513 0.04318 0.02301 0.0446 0.1266
0001b0 da 23 a9 a5 9f 22 44 28 c9 2c 77 2c a1 2a fc 2c
       0.015335 -0.02211 0.01293 0.03333 0.07477 0.06976 0.0518 0.0779
0001c0 ad 20 2b a8 e9 ab 35 26 48 a1 04 2c fd 2c df 28
       0.00913 -0.03256 -0.0618 0.02425 -0.010315 0.06274 0.07794 0.03806
0001d0 51 2c a2 26 4e 25 07 9e 69 a0 03 28 81 2c 68 2d
       0.06744 0.02591 0.02072 -0.005886 -0.00861 0.03134 0.0704 0.0845
0001e0 d8 a2 53 a6 e1 2c 80 28 dc ac ef a8 e4 2b 52 b0
       -0.01337 -0.0247 0.07623 0.03516 -0.0759 -0.03854 0.06165 -0.135
0001f0 06 a4 a9 a8 75 a8 12 ac 2b 26 20 aa 76 27 d7 a8
       -0.01572 -0.0364 -0.03482 -0.0636 0.0241 -0.04785 0.02914 -0.0378

sequential_3/dense_7/MatMul f2 [25, 64]
000000 8c b8 e8 b8 ba 33 40 b0 98 b0 f9 32 15 b5 f5 2e
       -0.5684 -0.6133 0.2415 -0.1328 -0.1436 0.2179 -0.3176 0.1087
000010 cb b0 f5 b1 fa 32 58 28 48 b6 f6 b7 d1 35 1c 33
       -0.1498 -0.1862 0.218 0.03394 -0.3926 -0.4976 0.3635 0.2222
000020 f7 32 d2 32 c5 2e 0b 36 b9 b0 a7 2a cc 32 bd b3
       0.2177 0.2131 0.1058 0.3777 -0.1476 0.05197 0.2124 -0.2418
000030 29 b2 93 b1 a6 33 fe 31 8a b2 ac 32 2a b8 c7 30
       -0.1925 -0.1742 0.239 0.1873 -0.2043 0.2085 -0.5205 0.1493
000040 0b 32 ec b0 87 33 09 30 27 32 a4 ad f6 33 9c 35
       0.1888 -0.1538 0.2352 0.1261 0.1923 -0.08813 0.2488 0.3506
000050 5b b8 df 32 d1 b8 4e 2e 1f 33 06 34 f0 b3 5f b1
       -0.5444 0.2147 -0.602 0.0985 0.2225 0.2515 -0.248 -0.1678
000060 6c b8 ea 30 05 b2 2a 22 dd 2d 62 a8 1e 32 3d 2f
       -0.5527 0.1536 -0.1881 0.01204 0.0916 -0.03424 0.1912 0.1131
000070 d4 b1 6c b1 0d af 47 2b c4 ae 0b b6 d2 2f 09 b2
       -0.1821 -0.1694 -0.11017 0.05685 -0.1057 -0.3777 0.1222 -0.1886
000080 3e b9 7d 23 ae a8 91 b2 f1 b1 75 34 96 30 bd 33
       -0.6553 0.014626 -0.03656 -0.2052 -0.1857 0.2786 0.1433 0.2418
000090 65 a1 16 34 2c b0 7e b6 60 b4 4f b4 06 b4 a0 34
       -0.01054 0.2554 -0.1304 -0.4058 -0.2734 -0.2693 -0.2515 0.289
0000a0 13 30 3e b6 9f 2d 7e b8 be b2 d4 b8 09 31 37 b3
       0.1273 -0.3901 0.0878 -0.5615 -0.2107 -0.6035 0.1573 -0.2255
0000b0 d4 b1 aa b3 86 b2 fe 2d 0f 2f dc b5 ac b8 42 b3
       -0.1821 -0.2395 -0.2039 0.0936 0.1103 -0.3662 -0.584 -0.2268
0000c0 94 36 ed 31 fa 31 ae 2e 0c b1 82 32 b2 b2 17 2f
       0.4111 0.1852 0.1868 0.1044 -0.1577 0.2034 -0.2092 0.1108
0000d0 a3 35 00 2e 4a 36 25 b3 71 28 f5 b2 67 b1 5e 2e
       0.3523 0.09375 0.393 -0.2233 0.0347 -0.2174 -0.1688 0.0995
0000e0 80 34 cf b1 e1 ac cf a8 b5 b6 9d b1 f6 b2 b6 b2
       0.2812 -0.1815 -0.07623 -0.03757 -0.4192 -0.1754 -0.2175 -0.2097
0000f0 ef 33 ff b2 a9 2f 84 af 0e 2b 2d 36 06 a0 33 b1
       0.2479 -0.2186 0.1197 -0.11743 0.0551 0.386 -0.00786 -0.1625
000100 27 b4 e3 2f 36 b0 f2 b3 d1 2b c0 b8 b3 b4 0b 32
       -0.2595 0.1232 -0.1316 -0.2483 0.06107 -0.5938 -0.2937 0.1888
000110 a1 2d f3 a8 09 a4 b1 b8 e7 b7 5d b9 6b 2f f3 35
       0.08795 -0.03867 -0.01576 -0.5864 -0.494 -0.6704 0.1159 0.3718
000120 31 30 30 34 e5 35 2a b8 02 b4 ad 9d c4 2c 18 b1
       0.131 0.2617 0.3684 -0.5205 -0.2505 -0.005543 0.07446 -0.1592
000130 a6 9d 5c a9 ac a4 b1 26 0a 2d 75 33 83 30 4d af
       -0.005516 -0.04187 -0.01825 0.02614 0.07874 0.233 0.141 -0.1141
000140 ef 34 7e b6 72 30 19 2e b4 b0 06 30 d8 33 67 b1
       0.3083 -0.4058 0.1389 0.0953 -0.147 0.1257 0.2451 -0.1688
000150 f3 35 00 8e 32 b6 f7 b2 74 32 17 b8 8a 2d 2f b1
       0.3718 -0.0003662 -0.3872 -0.2177 0.2017 -0.511 0.08655 -0.162
000160 c2 b8 11 ad 73 33 ea 30 0c 35 25 33 ca 33 4f 27
       -0.5947 -0.07916 0.2328 0.1536 0.3154 0.2233 0.2434 0.02855
000170 6a b2 a1 32 16 21 3b 27 4c 32 d9 b7 55 ae da b2
       -0.2004 0.2072 0.00993 0.02824 0.1968 -0.4905 -0.09894 -0.2141
000180 77 33 08 35 20 af 0a 33 4d 2c 9c 35 39 2f bc 2d
       0.2333 0.3145 -0.1113 0.22 0.0672 0.3506 0.11285 0.0896
000190 14 ad 17 30 2d 32 42 b4 2a 36 dd 31 29 b8 b0 b6
       -0.07935 0.1278 0.193 -0.266 0.3853 0.1832 -0.52 -0.418
0001a0 38 b2 61 b9 b8 b0 b5 b1 de ad 4a b9 35 2b b3 33
       -0.1943 -0.6724 -0.1475 -0.1783 -0.0917 -0.661 0.0563 0.2406
0001b0 94 ac 42 30 e8 33 c3 2f 09 34 3e b7 c0 34 13 b2
       -0.07153 0.133 0.2471 0.1213 0.2522 -0.4526 0.2969 -0.1898
0001c0 3b 37 be 32 5d 8d af 2e 2f 32 d1 b3 7f 30 d1 b5
       0.452 0.2107 -0.0003273 0.10443 0.1932 -0.2443 0.1405 -0.3635
0001d0 e4 ad 87 b3 c7 32 ae 11 d3 ab 10 34 93 b1 12 ae
       -0.09204 -0.2352 0.2118 0.0006933 -0.06113 0.254 -0.1742 -0.09485
0001e0 12 b6 12 2a 37 31 a0 2d d1 b8 c4 2d 41 b2 2a 2c
       -0.3794 0.04742 0.163 0.0879 -0.602 0.0901 -0.1954 0.06506
0001f0 56 27 38 b2 16 30 1b ae b0 33 b8 b0 c3 32 0a aa
       0.02866 -0.1943 0.1277 -0.0954 0.2402 -0.1475 0.2113 -0.04718
